8x8/final_weights_3000.pth (torch, 5935 bytes, 6 tensors)

FC.0.weight f4 [12, 64]
0	0x3c8c68dc	0.017139845
1	0x3c8f73e5	0.017511318
2	0xbe2395e7	-0.15975152
3	0x3c6871bf	0.014187275
4	0xbdd51ae1	-0.10405517
5	0x3dae3894	0.08506885
6	0xbe68c5a4	-0.22731644
7	0x3d4ceab3	0.050028514
8	0x3bdd065f	0.0067451443
9	0x3c48dfb1	0.012260363
10	0x3cb41095	0.021980563
11	0xbdfa7a52	-0.12230362
12	0xbe07a649	-0.13247027
13	0xbe6f6918	-0.23379934
14	0xbe9075c7	-0.28214857
15	0x3c9b0cca	0.018926997
16	0xbe81bf22	-0.25341135
17	0xbcb4422d	-0.022004211
18	0xbe5f2936	-0.21793064
19	0xbd546600	-0.051855087
20	0xbdc7fba4	-0.097647935
21	0x3c96abb6	0.018392425
22	0x3bb7ef6e	0.005613259
23	0x3ca10792	0.01965693
24	0x3e1e4cf4	0.15459043
25	0xbddd51e2	-0.108066335
26	0x3e142ff3	0.14471416
27	0xbda84432	-0.08216132
28	0x3e63a43e	0.22230622
29	0x3e742af6	0.23844513
30	0x3dd9b96f	0.10631072
31	0x3e89ed59	0.26938894
32	0x3c2f36a8	0.010694183
33	0xbe90cd43	-0.28281602
34	0x3cba38de	0.022732195
35	0x3e8218b7	0.2540948
36	0xbe19fbb5	-0.15037425
37	0xbe3a7223	-0.18207602
38	0xbe868d52	-0.26279694
39	0xbd8ed30e	-0.06973849
40	0x3e562b02	0.20914844
41	0xbe057689	-0.13033499
42	0x3da8749c	0.082253665
43	0xbe3322df	-0.17493771
44	0x3e017f39	0.12646188
45	0x3ef26404	0.4734193
46	0x3e487f06	0.19579706
47	0xbe5e3b56	-0.21702322
48	0x3eb3cbfd	0.35116568
49	0xbe0bd2a2	-0.13654569
50	0x3d90fe6b	0.070797764
51	0x3e0274c3	0.12739854
52	0x3e3629ac	0.17789334
53	0x3dfd2364	0.12360266
54	0xbe6c20e7	-0.23059426
55	0xbdb69b5b	-0.089163505
56	0xbe5d680e	-0.21621725
57	0xbe417c88	-0.18895161
58	0x3dcdec73	0.10054865
59	0x3e96e2a1	0.2946978
60	0x3e90ca55	0.28279367
61	0xbe9537e9	-0.2914422
62	0x3c8823f0	0.016618699
63	0x3e5546ee	0.20827839
64	0x3daff700	0.085920334
65	0x3dfaae45	0.122402705
66	0xbdc704a1	-0.0971768
67	0xbdc4eb62	-0.09615208
68	0x3cb05eed	0.02152964
69	0x3e0a3c8f	0.13499664
70	0xbdb1f12a	-0.086885765
71	0x3dad28d1	0.08455051
72	0xbdc902c3	-0.0981498
73	0xbdc6292b	-0.09675821
74	0xbdc8a247	-0.09796577
75	0xbdb51f2c	-0.08843836
76	0xbdb1cc99	-0.08681602
77	0x3e3a6417	0.18202244
78	0x3e82632b	0.25466284
79	0xbe43c93b	-0.19119732
80	0xbe08f3ec	-0.13374299
81	0xbe35284e	-0.17691156
82	0xbe7649b4	-0.24051553
83	0xbe8f7ff5	-0.2802731
84	0xbe9758f8	-0.29560065
85	0xbdbc15fc	-0.09183881
86	0xbe6c8b64	-0.23100048
87	0xbb90f1d3	-0.004423359
88	0xbe1180d4	-0.142093
89	0xbdc1bf3e	-0.09460305
90	0xbe3006e9	-0.17190136
91	0xbdcaa4d7	-0.09894722
92	0xbdb72ce2	-0.089441076
93	0xb9b3c000	-0.00034284592
94	0xbdc68226	-0.096927926
95	0xbdb37fac	-0.08764586
96	0xbe886e02	-0.2664643
97	0x3c1cdd31	0.0095742205
98	0xbe0ecfb0	-0.13946414
99	0x3e0fcc56	0.14042792
100	0xbe8addbf	-0.27122304
101	0xbe9a3d82	-0.30125052
102	0xbdbbb5b2	-0.09165515
103	0x3ebf1f77	0.37328693
104	0xbda2984b	-0.07939204
105	0xbc657820	-0.014005691
106	0x3ca09d00	0.019606113
107	0xbce24c24	-0.027624197
108	0xbd9ebd84	-0.07750991
109	0xbe3d661c	-0.18495983
110	0xbb8aa200	-0.0042307377
111	0xbdb3d3a3	-0.08780601
112	0xbe616c4e	-0.22013971
113	0x3e634062	0.22192529
114	0xbdb76e83	-0.08956625
115	0xbdb14597	-0.08655851
116	0xbe5247ec	-0.20535249
117	0x3d181ee5	0.03713884
118	0x3e2c636c	0.16834801
119	0xbdb0ab6f	-0.08626448
120	0xbd9196df	-0.071088545
121	0xbe80ec87	-0.25180456
122	0xbe2bf0cc	-0.16791075
123	0x3e8fcfc7	0.2808821
124	0x3e93c36d	0.28860036
125	0xbe58e368	-0.21180499
126	0x3f113f87	0.5673756
127	0x3e8c38ff	0.27387235
128	0xbe39f16a	-0.18158498
129	0xbd414599	-0.047185514
130	0xbcc7a3fe	-0.02437019
131	0x3e077a6c	0.13230294
132	0xbdb638a8	-0.08897525
133	0xbd234628	-0.039861828
134	0xbe96dbee	-0.29464668
135	0x3d6a6280	0.057222843
136	0x3e0701bc	0.13184255
137	0xbe51d5fe	-0.20491788
138	0xbe4b1a28	-0.19834197
139	0x3d0e07f7	0.034675565
140	0xbd0df0d8	-0.034653515
141	0xbe7086a0	-0.23488855
142	0x3dd38c17	0.103294544
143	0xbe4f4eb6	-0.2024487
144	0x3e055990	0.13022447
145	0x3e774787	0.2414838
146	0xbd82f8ce	-0.06395112
147	0xbdcb3b12	-0.09923376
148	0xbe66da86	-0.22544298
149	0x3c69c5b7	0.01426833
150	0xbe5f246b	-0.21791236
151	0xbe77b7e5	-0.24191244
152	0xbe8d0025	-0.27539173
153	0x3dd47453	0.103737496
154	0x3e1a1461	0.15046836
155	0xbe99558b	-0.29948077
156	0xbe90d2f6	-0.2828595
157	0xbd7ae638	-0.06125471
158	0x3e387c7b	0.18016236
159	0xbd923474	-0.07138911
160	0xbe0ab158	-0.13544214
161	0x3e18c42f	0.14918588
162	0xbb89490f	-0.0041896175
163	0xbe0cb2b9	-0.13740052
164	0xbe2ed3fd	-0.17073055
165	0xbe67b8aa	-0.22629037
166	0x3d54a23c	0.05191253
167	0xbd9fe698	-0.07807654
168	0xbde1d8f0	-0.11027706
169	0xbe24f4a6	-0.16108951
170	0x3e313f8c	0.17309397
171	0xbe0668d3	-0.13125925
172	0x3d509158	0.05091986
173	0x3a947e3e	0.0011329127
174	0x3e8fda5f	0.2809629
175	0xbe49f828	-0.1972357
176	0xbe1da7cb	-0.15396039
177	0x3e44cfe4	0.19219929
178	0xbd8a4ff8	-0.06753534
179	0xbe6981b6	-0.22803387
180	0x3d441f70	0.047881544
181	0xbd263718	-0.040579885
182	0xbe1dd7b9	-0.15414323
183	0xbe5dafaa	-0.21649042
184	0xbd0d3a88	-0.034479648
185	0x3e4470e5	0.19183691
186	0xbde3920e	-0.11111842
187	0x3e2380d8	0.15967119
188	0x3e948779	0.29009607
189	0xbde860fa	-0.11346622
190	0xbd5d2ae0	-0.053995967
191	0xbe4ef3bd	-0.20210166
192	0xbe7dda11	-0.24790217
193	0xbe71772a	-0.23580614
194	0xbe0de194	-0.13855582
195	0xbdb95ae9	-0.09050543
196	0xbe01ace4	-0.12663609
197	0x3d162b18	0.03666219
198	0x3d86fa8d	0.065907575
199	0x3d98580a	0.07438667
200	0xbe2c7b6d	-0.16843958
201	0xbe04752e	-0.12935326
202	0xbe329263	-0.17438655
203	0xbd697df9	-0.057004903
204	0xbe777438	-0.24165428
205	0x3d0b74f5	0.034047086
206	0x3d5b9a24	0.053613797
207	0xbe079fc7	-0.13244544
208	0xbecad55b	-0.39615902
209	0xbea1f53d	-0.31632414
210	0xbe8afd29	-0.2714627
211	0x3e037e96	0.12841257
212	0x3d6c722f	0.05772608
213	0xbe4d732c	-0.20063466
214	0x3dadf7d0	0.08494532
215	0xbe417aa4	-0.1889444
216	0xbea36aaa	-0.31917316
217	0xbedc1a98	-0.4298904
218	0xbede67a9	-0.4343846
219	0xbf0a8190	-0.54103947
220	0xbeff0753	-0.49810275
221	0xbe85b313	-0.26113185
222	0x3ec6b62a	0.38810855
223	0xbdf1b015	-0.11801163
224	0xbde2006a	-0.11035235
225	0xbd807fe1	-0.06274391
226	0xbeb6973a	-0.35662252
227	0x3e8029c9	0.2503188
228	0xbdfe770c	-0.1242505
229	0xbf06d823	-0.5267355
230	0xbf07a64a	-0.5298811
231	0x3ed8efff	0.42370602
232	0xbed1292a	-0.40851718
233	0x3cc32160	0.023819625
234	0xbd66ea44	-0.056375757
235	0xbd89bc4a	-0.067253664
236	0xbecab095	-0.39587846
237	0xbeb1255d	-0.34598818
238	0x3e242404	0.16029364
239	0x3f29e034	0.6635773
240	0xbefb5049	-0.4908469
241	0xbc1df520	-0.009640962
242	0xbe1ea514	-0.1549266
243	0xbef363c7	-0.47537062
244	0xbe1825a2	-0.14858106
245	0xbe6fcb5e	-0.23417422
246	0x3daf47d8	0.08558625
247	0x3f50ca0a	0.8155829
248	0xbe9a5c13	-0.30148372
249	0xbedaca97	-0.4273269
250	0xbec6c923	-0.3882533
251	0x3e9315ef	0.28727672
252	0xbe557cf1	-0.20848443
253	0xbbf5ce11	-0.0075013717
254	0x3ce0394e	0.027371075
255	0xbdbc33aa	-0.09189542

FC.0.bias f4 [12]
0	0xbce0a8fb	-0.027424326
1	0x3d829257	0.06375568
2	0xbe78984d	-0.24276848
3	0x3f0008cc	0.5001342
4	0xbe90e93f	-0.28302953
5	0x3e090943	0.1338244
6	0xbe927e61	-0.28612044
7	0x3c746e84	0.014918927
8	0xbd9b0169	-0.07568628
9	0xbe8b26bb	-0.27177987
10	0x3d1f4243	0.03888155
11	0xbe59c9e2	-0.21268418

FC.2.weight f4 [8, 12]
0	0xbe92440c	-0.2856754
1	0x3eddeec3	0.43346223
2	0xbb767a5f	-0.003760956
3	0x3faa431d	1.3301731
4	0x3df02c94	0.117272526
5	0xbf2fa9cf	-0.6861848
6	0x3dd8c02d	0.105835296
7	0xbf11e72d	-0.5699337
8	0x3ef6483b	0.48101982
9	0xbd62fc8c	-0.05541663
10	0x3cb07f52	0.021545086
11	0xbee1171e	-0.4396295
12	0x3a2ebf74	0.0006666102
13	0xbee58a2a	-0.44831973
14	0xbdc6b786	-0.09702973
15	0xbf69d03e	-0.9133338
16	0x3f2c8b10	0.6739969
17	0x3f8530a6	1.0405471
18	0xbf144003	-0.57910174
19	0xbf209dd1	-0.6274081
20	0x3f3a5a40	0.7279396
21	0xbf2fe55e	-0.6870936
22	0xbf0130aa	-0.5046488
23	0x3cbe3f69	0.023223596
24	0x3ecd5874	0.40106547
25	0x3dd8fe86	0.105954215
26	0x3daef686	0.08543114
27	0x3e8ab068	0.27087712
28	0x3e81c1de	0.2534322
29	0x3ee31acd	0.44356385
30	0xbca27e76	-0.019835692
31	0xbf2e9b89	-0.6820608
32	0x3ecb953a	0.39762288
33	0xbec52990	-0.38508272
34	0xbf399cbc	-0.7250478
35	0x3f11ad1d	0.56904775
36	0x3ef313b8	0.47475982
37	0xbed62d97	-0.41831657
38	0x3dc523de	0.09625982
39	0xbf152578	-0.582603
40	0xbf22aa0b	-0.63540715
41	0xbeebff2c	-0.46093118
42	0xbf1926b5	-0.5982469
43	0xbeba8d7a	-0.36436063
44	0x3eb2f3cf	0.34951636
45	0x3f0e5a7e	0.5560683
46	0x3df1e96f	0.11812102
47	0xbe8ad0cd	-0.27112427
48	0xbd882567	-0.06647759
49	0x3f46b93f	0.77626413
50	0x3e43a2b6	0.19105038
51	0xbe06f5b1	-0.13179661
52	0xbec4e1b5	-0.3845345
53	0x3ea7f63f	0.32805058
54	0xbea6f568	-0.32609105
55	0xbed9bc8d	-0.42526665
56	0x3f1cd09e	0.61255825
57	0x3f032ac9	0.5123716
58	0x3ea878d5	0.32904688
59	0xbe9564c1	-0.29178432
60	0x3f07ea55	0.5309194
61	0x3f228b73	0.6349403
62	0xbe9d4e30	-0.30723715
63	0x3f07da26	0.53067243
64	0x3e96d405	0.29458633
65	0xbf514d85	-0.8175891
66	0xbf0cba3b	-0.54971665
67	0xbc9dcf2b	-0.019263824
68	0xbda6a097	-0.08136099
69	0x3e631ecd	0.22179718
70	0xbe7654a1	-0.24055721
71	0xbd8a2060	-0.06744456
72	0x3f53ff07	0.82811016
73	0xbec4dcfd	-0.3844985
74	0x3e39a2fc	0.1812858
75	0x3ef21ec0	0.47289085
76	0xbe841dc4	-0.2580396
77	0x3dbca1c8	0.09210545
78	0x3ea24582	0.31693655
79	0xbf700857	-0.93762726
80	0xbe1e11f4	-0.15436536
81	0x3efce0ac	0.4939016
82	0xbf242da9	-0.6413217
83	0x3ee2bec3	0.44286165
84	0xbed4d965	-0.4157211
85	0x3f098946	0.5372509
86	0x3ea908a8	0.33014417
87	0x3e1f0d39	0.15532388
88	0x3e439480	0.19099617
89	0xbe4d4720	-0.20046663
90	0xbf33f6e8	-0.70298624
91	0xbeab4ed4	-0.3345858
92	0xbed3c6be	-0.41362566
93	0xbe3f5807	-0.18685924
94	0x3df3e046	0.11908011
95	0x3e021410	0.12702966

FC.2.bias f4 [8]
0	0x3e6eb485	0.2331105
1	0x3cc55eab	0.024092993
2	0xbe6ac56b	-0.22926871
3	0xbe5b27cf	-0.21401905
4	0xbcee934e	-0.029122975
5	0xbe5f5f6a	-0.21813741
6	0xbe5e3f17	-0.21703754
7	0xbe16d8a8	-0.14731085

FC.4.weight f4 [4, 8]
0	0x3e97e54d	0.2966713
1	0x3d858a22	0.06520487
2	0x3f66d41a	0.9016739
3	0x3efbabc7	0.49154493
4	0x3ef763bd	0.48318282
5	0xbf8684a7	-1.0509232
6	0xbf9d2f13	-1.2279991
7	0x3fd46cba	1.6595681
8	0x3f115402	0.5676881
9	0xbe5c6f6d	-0.2152688
10	0xbeb642a6	-0.35597724
11	0x3f5305b3	0.8243057
12	0x3f70fba1	0.94133955
13	0xbf0407f9	-0.51574665
14	0x3f0202b8	0.507854
15	0xbde84345	-0.11340956
16	0x3f402e4f	0.7507066
17	0x3f9992c7	1.1997918
18	0xbf39c139	-0.7256046
19	0xbf017926	-0.5057548
20	0x3e581a10	0.21103692
21	0xbc8e7f50	-0.017394692
22	0xbf5f0d91	-0.87130076
23	0xbeced5aa	-0.40397388
24	0x3f0d038d	0.55083543
25	0x3f3ccf0e	0.7375344
26	0x3d25fd30	0.04052466
27	0x3c90cba7	0.017675234
28	0x3e11412a	0.14185014
29	0xbea83f23	-0.3286067
30	0xbe711e53	-0.23546724
31	0xbd37f62c	-0.044912502

FC.4.bias f4 [4]
0	0x3e302a2a	0.17203584
1	0xbc279301	-0.01022792
2	0xbdc1d77a	-0.09464927
3	0x3d0b7dd7	0.034055557
